data.pth (torch, 4887 bytes, 6 tensors)

l1.weight f4 [8, 51]
0	0xbdeff4f0	-0.1171664
1	0x3eab3123	0.33435926
2	0x3d28b69d	0.04118978
3	0xbf1a25c6	-0.6021389
4	0xbdb287fb	-0.087173425
5	0xbdfbe87a	-0.12300201
6	0x3f574376	0.8408731
7	0xbd969fe2	-0.07354714
8	0xbdce4e82	-0.10073568
9	0xbe8de8b3	-0.27716598
10	0x3f6d356b	0.92659634
11	0x3f0caa77	0.5494761
12	0xbea3ed0f	-0.320168
13	0xbcf9540e	-0.030435588
14	0xbd9f62d4	-0.07782522
15	0xbe9d80d6	-0.30762357
16	0x3f10547d	0.5637892
17	0xbe9d7c96	-0.30759114
18	0xbe9d78b8	-0.30756164
19	0xbaeeb6b6	-0.0018212411
20	0xbeefadd5	-0.4681231
21	0xbebc57fd	-0.3678588
22	0xbd0d0a8e	-0.034433894
23	0x3ed500b6	0.41602105
24	0x3ec623b8	0.38699126
25	0xbe27bde4	-0.16381031
26	0x3c3c82e9	0.011505821
27	0x3f4ca73d	0.79942685
28	0xbeb8668b	-0.36015734
29	0x3d3f79ac	0.046746895
30	0x3ec87b85	0.39156738
31	0xbe7dfb07	-0.2480279
32	0xbdda2a02	-0.106525436
33	0xbe1f8439	-0.15577783
34	0x3c3dec11	0.011591927
35	0x3ea50274	0.32228434
36	0xbe72bcd5	-0.23704846
37	0x3c37b1f0	0.011211857
38	0x3f3bdbc6	0.7338222
39	0xbeeb98f9	-0.46015146
40	0x3eabfa0f	0.33589217
41	0xbc772803	-0.015085223
42	0xbe5b401e	-0.21411178
43	0xbc99b7ff	-0.018764494
44	0xbd43fa3c	-0.047846064
45	0x3ccdb643	0.025111323
46	0xba12fd43	-0.0005607197
47	0xbdbbb1fd	-0.09164808
48	0x3f82f055	1.0229594
49	0xbe0891bc	-0.13336843
50	0x3efbef9e	0.4920625
51	0x3e9a5623	0.30143842
52	0x3f0006bc	0.50010276
53	0x3ec90ad0	0.39266062
54	0x3f0efde1	0.5585614
55	0xbe797c30	-0.2436378
56	0xbeaebb2c	-0.34127176
57	0xbf13535f	-0.5754909
58	0x3d6dc382	0.05804778
59	0x3db79e52	0.08965744
60	0x3ef2dbc4	0.47433293
61	0x3e35ce8c	0.17754573
62	0x3ec3be11	0.38230947
63	0xbe9e613d	-0.30933562
64	0x3ea0d311	0.3141103
65	0xbe8ec2f3	-0.2788311
66	0x3f143152	0.57887757
67	0x3d01e411	0.03171164
68	0x3f205032	0.6262237
69	0x3f254712	0.6456157
70	0x3e451c79	0.19249143
71	0xbd5e68af	-0.054299053
72	0x3ec2c453	0.38040408
73	0x3c26877e	0.01016414
74	0x3f291d9d	0.6606081
75	0x3e98d566	0.2985031
76	0xbe2f2a4f	-0.17105983
77	0x3c55415c	0.013016071
78	0x3ef9d816	0.48797673
79	0x3f0f9c9f	0.5609836
80	0x3de84915	0.11342064
81	0xbdf0da72	-0.11760415
82	0xbef5521f	-0.47914216
83	0x3e0100cf	0.12597965
84	0xbe6e836f	-0.23292325
85	0xbe833aa8	-0.2563069
86	0x3efa6cbd	0.48911086
87	0xbebba933	-0.36652526
88	0xbdc9208f	-0.09820663
89	0x3f0bfba1	0.5468083
90	0x3f5066af	0.8140668
91	0x3e767b8e	0.2407057
92	0x3e8aaf1e	0.2708673
93	0x3d212a8c	0.039347216
94	0x3ed7e3e0	0.42166042
95	0xbd902ad8	-0.07039422
96	0xbdd4b4cb	-0.10386046
97	0xbe3d40fc	-0.18481821
98	0xbeeb844b	-0.4599937
99	0xbea74931	-0.32673028
100	0x3c4e4a26	0.012590921
101	0x3eabcb9f	0.33553788
102	0xbe5fc76f	-0.21853422
103	0x3eae54ba	0.34049016
104	0x3dbcb4f4	0.092142016
105	0x3f1412fc	0.5784147
106	0x3cd24307	0.025666727
107	0xbeee2301	-0.4651108
108	0x3cd66a9e	0.026173886
109	0x3e66a578	0.22524059
110	0x3e35ddac	0.17760342
111	0x3e90e964	0.28303063
112	0xbe9c4334	-0.30520022
113	0x3e8cae51	0.27476743
114	0x3f12dc19	0.5736709
115	0x3eac05e9	0.3359826
116	0xbe8f1151	-0.279429
117	0x3f1372ce	0.57597053
118	0xbeee6354	-0.46560156
119	0x3ef01797	0.46892998
120	0x3f15a9aa	0.5846201
121	0x3eabd393	0.33559856
122	0x3f455c5b	0.7709405
123	0x3f24994f	0.6429643
124	0x3efe7199	0.49696043
125	0x3edb30e9	0.42810753
126	0x3f0200bf	0.5078239
127	0x3e93ec45	0.28891197
128	0xbde87d63	-0.113520406
129	0xbeaa814b	-0.33301768
130	0x3f1894db	0.59602135
131	0x3ea111a2	0.31458765
132	0xbd9da69f	-0.07697796
133	0x3e1e5c7a	0.15464965
134	0x3ea55fac	0.32299554
135	0x3ea84964	0.32868493
136	0x3e9ec124	0.3100673
137	0x3ee6b981	0.45063403
138	0x3d000a87	0.03126004
139	0x3e9d4ae1	0.3072119
140	0xbdbecdf8	-0.09316629
141	0x3ec423fe	0.3830871
142	0xbf43a23e	-0.76419437
143	0xbd1bb9c2	-0.03801895
144	0x3f220e05	0.6330264
145	0x3e54c054	0.20776492
146	0x3e6d4937	0.2317246
147	0x3e9abaa5	0.30220523
148	0xbf1ccbbf	-0.6124839
149	0x3ed1cf74	0.40978587
150	0xbe17e6da	-0.14834157
151	0x3ef6ddd3	0.48216113
152	0xbe9f1a8f	-0.3107495
153	0x3caa0eb5	0.020758966
154	0x3ef9aaad	0.48763028
155	0xbe7b22bb	-0.24524967
156	0xbf003319	-0.5007797
157	0x3e9546fb	0.29155716
158	0x3eb00328	0.34377408
159	0x3f0b1526	0.54329145
160	0x3f7178a9	0.9432474
161	0x3f0cd8ce	0.5501832
162	0xbdcac029	-0.09899933
163	0x3ef6e984	0.48225033
164	0x3eeb0a13	0.45906124
165	0x3d3408e0	0.043953776
166	0xbdd3aea4	-0.103360444
167	0x3ee1e697	0.4412124
168	0xbe843c5b	-0.25827298
169	0x3eb026b0	0.34404516
170	0xbe5bf627	-0.21480618
171	0xbe62b735	-0.221402
172	0x3d9315e2	0.07181908
173	0x3e93ee4b	0.2889274
174	0x3e568cd1	0.20952155
175	0x3ec6b309	0.38808468
176	0x3e90acdb	0.28256878
177	0x3edaf5d3	0.42765674
178	0x3e62aab3	0.22135429
179	0x3e1c8443	0.15284829
180	0x3f36a013	0.71338004
181	0xbd9bc3af	-0.07605683
182	0x3e5dee08	0.21672833
183	0x3edb5dca	0.42844993
184	0x3edbad91	0.42905858
185	0x3eb7e184	0.35914242
186	0x3df69d9c	0.1204178
187	0x3eb54b75	0.35409132
188	0x3e5b388b	0.21408288
189	0x3f22c00f	0.6357431
190	0x3e6f057d	0.23341937
191	0x3f150319	0.5820785
192	0x3e15880d	0.1460268
193	0x3daa7208	0.08322531
194	0x3e32f9da	0.17478123
195	0x3ebe7bb9	0.37203768
196	0xbdd171c1	-0.10226775
197	0x3ea0d8f8	0.31415534
198	0xbd73e3bf	-0.059543367
199	0x3e86c5e4	0.26322854
200	0x3e20303a	0.15643397
201	0x3f221f60	0.63329124
202	0x3cfeb8ae	0.031093922
203	0x3f145f9b	0.5795838
204	0xbebceb27	-0.36898157
205	0xbec6a460	-0.38797283
206	0xbe6a4645	-0.22878368
207	0xbed77b66	-0.42086333
208	0x3ee7e83e	0.45294374
209	0x3f4069ad	0.7516125
210	0x3ea51e7a	0.32249814
211	0xbdd4c10d	-0.10388384
212	0xbdb30b0c	-0.087423414
213	0xbe0a8954	-0.13528949
214	0x3e59dc6e	0.21275494
215	0xbec9da62	-0.39424425
216	0x3d82aaed	0.06380258
217	0xbe897469	-0.26846626
218	0x3f73bd74	0.9521096
219	0xbeca35a5	-0.39494053
220	0x3e5b5763	0.21420054
221	0xbece4fae	-0.40295166
222	0xbec3d683	-0.38249597
223	0xbe06dab7	-0.1316937
224	0xbdfc6ece	-0.12325822
225	0xbcfdbbbd	-0.03097331
226	0xbe8acc7d	-0.27109137
227	0xbe98b85a	-0.2982815
228	0xbe4db4ec	-0.20088547
229	0x3f1d18ee	0.61366165
230	0xbdd54bcb	-0.10414847
231	0x3e8c89a4	0.2744876
232	0xbf2aa9a1	-0.66665083
233	0xbdacc1c1	-0.08435393
234	0x3d0013db	0.031268936
235	0x3eb8006f	0.3593783
236	0xbd9d784d	-0.07688961
237	0x3f21be0e	0.63180625
238	0x3ed826cb	0.42217097
239	0xbe95746e	-0.2919039
240	0x3f3799a7	0.7171883
241	0xbc8e6a83	-0.017384773
242	0x3c022b12	0.007944839
243	0xbe8ee3fa	-0.27908307
244	0xbf27b2d7	-0.6550726
245	0xbe7ed627	-0.2488638
246	0xbc2e8a61	-0.010653109
247	0xbe12e3bd	-0.14344688
248	0xbdb78b8b	-0.089621626
249	0xbdc7ef60	-0.09762454
250	0x3f113113	0.56715506
251	0xbe71feb9	-0.23632325
252	0x3ec92082	0.39282614
253	0xbda09f8b	-0.078429304
254	0x3e9fc9f4	0.31208766
255	0x3f62fd80	0.8866806

l1.bias f4 [8]
0	0x3e9d7d10	0.30759478
1	0x3f6b775b	0.91978997
2	0x3f439f1d	0.7641466
3	0x3f34a9be	0.70571506
4	0x3eceb143	0.40369615
5	0x3f94d7cf	1.162836
6	0x3f27765c	0.6541498
7	0x3ee72b92	0.4515043

l2.weight f4 [8, 8]
0	0xbfa614f9	-1.297515
1	0x3f170348	0.5898938
2	0x3f7b9ffb	0.98290986
3	0x3e093708	0.13399899
4	0x3f24450d	0.64167863
5	0xbe455050	-0.19268918
6	0x3faed682	1.3659213
7	0x3f3ffeb8	0.74998045
8	0x3f86a6f7	1.0519704
9	0x3f58c81c	0.8468034
10	0xbf1d1d65	-0.6137298
11	0x3f8619ba	1.0476601
12	0x3e4de3c6	0.2010642
13	0xbcd0fe0d	-0.025511766
14	0xbf4e39ea	-0.8055712
15	0x3eb88d53	0.36045322
16	0x3ee46115	0.44605318
17	0xbf8e3785	-1.1110693
18	0xbf22a28f	-0.63529295
19	0x3f8a2f5d	1.0795704
20	0x3faad78e	1.3347032
21	0x3fa1d05b	1.264171
22	0x3f3a4bb4	0.72771764
23	0x3f61a4fd	0.8814238
24	0x3ddeaddd	0.108730055
25	0x3f61bb19	0.88176113
26	0x3f714af5	0.94255
27	0x3f301e21	0.68795973
28	0xbf88935b	-1.0669969
29	0xbf4b9ab6	-0.79532945
30	0x3ef389aa	0.47565967
31	0x3edf282e	0.43585342
32	0xbe29a2f0	-0.16566062
33	0x3fa16179	1.2607871
34	0x3f16d112	0.58912766
35	0x3f0d29aa	0.551417
36	0xbf5bb6f1	-0.8582602
37	0x3fc7fc8f	1.562395
38	0x3c5b4586	0.013383275
39	0xbfbaef85	-1.4604346
40	0xbf458cbb	-0.7716786
41	0xbf3c787a	-0.7362133
42	0x3f8686e8	1.050992
43	0x3f58048a	0.84381926
44	0xbf053809	-0.5203863
45	0xbf6ce89e	-0.92542446
46	0x3f2fd0e0	0.6867809
47	0x3f542991	0.82875925
48	0x3d4215f8	0.047384232
49	0x3bcca4c0	0.0062452257
50	0xbe9ef539	-0.31046465
51	0xbe873de6	-0.26414412
52	0x3c7b8300	0.015351057
53	0xbe1f2789	-0.15542425
54	0xbd3fd458	-0.046833366
55	0x3d071080	0.03297472
56	0xbe10338f	-0.14082168
57	0xbd284ab8	-0.041086882
58	0xbdfadc2a	-0.12249024
59	0x3e113dc4	0.14183718
60	0xbe0d8a35	-0.13822253
61	0x3cbdd700	0.023173809
62	0x3e46617a	0.19373122
63	0xbe8458fa	-0.25849134

l2.bias f4 [8]
0	0x3ef3fe8a	0.47655135
1	0xbe66f9a7	-0.22556172
2	0x3dc6040c	0.09668741
3	0x3e180b46	0.1484805
4	0x3f90e7bb	1.1320719
5	0xbd4bebf7	-0.04978558
6	0xbe0b2ee9	-0.13592114
7	0xbe2cf9db	-0.16892187

l3.weight f4 [7, 8]
0	0x3f22e070	0.63623714
1	0xbfa6ebf1	-1.3040754
2	0xbfaf2884	-1.3684239
3	0x3ebcb67e	0.3685798
4	0x3f2a4a35	0.6651948
5	0xbf85c2d6	-1.0450084
6	0xbc52dee0	-0.01287052
7	0xbe4767ba	-0.19473162
8	0x3ea45dfe	0.3210296
9	0xbf365eb1	-0.7123824
10	0x3f37c62f	0.7178678
11	0xbff61979	-1.9226524
12	0xbe72479a	-0.23660126
13	0xbfdb5da5	-1.7137953
14	0x3e93f5ef	0.2889857
15	0xbd72dcd8	-0.059292644
16	0xbfdaf2e4	-1.7105374
17	0xbe41f9cf	-0.1894295
18	0xba0ed58a	-0.000544869
19	0xbfc97c11	-1.5740987
20	0x3f88b020	1.0678749
21	0xbf10c759	-0.5655418
22	0x3e64b8ce	0.22336122
23	0xbeaebdaa	-0.34129077
24	0xbfbf18cc	-1.4929442
25	0x3f5e2aba	0.86783946
26	0x3f1a75cb	0.6033599
27	0xbf705864	-0.93884873
28	0xbf72bdf4	-0.94821095
29	0xbf4ec93a	-0.807758
30	0x3eaeb045	0.34118858
31	0x3c0cfb20	0.008604795
32	0x3f02dfc6	0.511227
33	0xbed45cd1	-0.41477063
34	0xbfc5a7d5	-1.5441843
35	0x3f4c56b1	0.7981978
36	0xbf8160da	-1.0107682
37	0x3f3de25b	0.74173516
38	0xbd9af0c0	-0.07565451
39	0x3e8fb733	0.28069457
40	0x3e1ee90b	0.15518586
41	0xbf9c476f	-1.22093
42	0x3e9a8d8e	0.30186123
43	0xbeceeb9b	-0.40414128
44	0xbfbb8396	-1.4649532
45	0x3e386897	0.18008648
46	0x3e8ae8d1	0.2713075
47	0x3d5459d8	0.051843494
48	0xbf9bef8c	-1.2182479
49	0x3f2ac061	0.66699797
50	0xbf590783	-0.84777087
51	0x3f4374dc	0.7635019
52	0xbe0389e1	-0.12845565
53	0xbeb7a49f	-0.35867783
54	0x3e6e7216	0.23285708
55	0xbe33bb15	-0.17551835

l3.bias f4 [7]
0	0x3e7470b8	0.23871124
1	0xbc3b419f	-0.0114292195
2	0x3e02bf3d	0.12768264
3	0xbe3a9259	-0.1821989
4	0x3e751201	0.23932649
5	0xbe270339	-0.16309823
6	0xbeefb969	-0.46821144
